…
[2026-01-20 16:03:02,771][361538] WARNING! It is generally recommended to enable Fixed KL loss (https://arxiv.org/pdf/1707.06347.pdf) for continuous action tasks to avoid potential numerical issues. I.e. set --kl_loss_coeff=0.1
[2026-01-20 16:03:02,772][361538] Setting fixed seed 0
[2026-01-20 16:03:02,783][361538] Initializing actor-critic model on device cpu
[2026-01-20 16:03:02,813][361538] Created Actor Critic model with architecture:
[2026-01-20 16:03:02,814][361538] ActorCriticSeparateWeights(
  (obs_normalizer): ObservationNormalizer()
  (actor_encoder): QuadMultiEncoder(
    (neighbor_encoder): QuadNeighborhoodEncoderAttention(
      (embedding_mlp): Sequential(
        (0): Linear(in_features=24, out_features=256, bias=True)
        (1): Tanh()
        (2): Linear(in_features=256, out_features=256, bias=True)
        (3): Tanh()
      )
      (neighbor_value_mlp): Sequential(
        (0): Linear(in_features=256, out_features=256, bias=True)
        (1): Tanh()
        (2): Linear(in_features=256, out_features=256, bias=True)
        (3): Tanh()
      )
      (attention_mlp): Sequential(
        (0): Linear(in_features=512, out_features=256, bias=True)
        (1): Tanh()
        (2): Linear(in_features=256, out_features=256, bias=True)
        (3): Tanh()
        (4): Linear(in_features=256, out_features=1, bias=True)
      )
    )
    (self_encoder): Sequential(
      (0): Linear(in_features=18, out_features=256, bias=True)
      (1): Tanh()
      (2): Linear(in_features=256, out_features=256, bias=True)
      (3): Tanh()
    )
    (obstacle_encoder): Sequential(
      (0): Linear(in_features=9, out_features=256, bias=True)
      (1): Tanh()
      (2): Linear(in_features=256, out_features=256, bias=True)
      (3): Tanh()
    )
    (feed_forward): Sequential(
      (0): Linear(in_features=768, out_features=512, bias=True)
      (1): Tanh()
    )
  )
  (actor_core): ModelCoreIdentity()
  (critic_encoder): QuadMultiEncoder(
    (neighbor_encoder): QuadNeighborhoodEncoderAttention(
      (embedding_mlp): Sequential(
        (0): Linear(in_features=24, out_features=256, bias=True)
        (1): Tanh()
        (2): Linear(in_features=256, out_features=256, bias=True)
        (3): Tanh()
      )
      (neighbor_value_mlp): Sequential(
        (0): Linear(in_features=256, out_features=256, bias=True)
        (1): Tanh()
        (2): Linear(in_features=256, out_features=256, bias=True)
        (3): Tanh()
      )
      (attention_mlp): Sequential(
        (0): Linear(in_features=512, out_features=256, bias=True)
        (1): Tanh()
        (2): Linear(in_features=256, out_features=256, bias=True)
        (3): Tanh()
        (4): Linear(in_features=256, out_features=1, bias=True)
      )
    )
    (self_encoder): Sequential(
      (0): Linear(in_features=18, out_features=256, bias=True)
      (1): Tanh()
      (2): Linear(in_features=256, out_features=256, bias=True)
      (3): Tanh()
    )
    (obstacle_encoder): Sequential(
      (0): Linear(in_features=9, out_features=256, bias=True)
      (1): Tanh()
      (2): Linear(in_features=256, out_features=256, bias=True)
      (3): Tanh()
    )
    (feed_forward): Sequential(
      (0): Linear(in_features=768, out_features=512, bias=True)
      (1): Tanh()
    )
  )
  (critic_core): ModelCoreIdentity()
  (actor_decoder): MlpDecoder(
    (mlp): Identity()
  )
  (critic_decoder): MlpDecoder(
    (mlp): Identity()
  )
  (critic_linear): Linear(in_features=512, out_features=1, bias=True)
  (action_parameterization): ActionParameterizationContinuousNonAdaptiveStddev(
    (distribution_linear): Linear(in_features=512, out_features=4, bias=True)
  )
)
[2026-01-20 16:03:03,026][361563] Worker 7 uses CPU cores [7]
[2026-01-20 16:03:03,026][361564] Worker 8 uses CPU cores [8]
[2026-01-20 16:03:03,074][361565] Worker 9 uses CPU cores [9]
[2026-01-20 16:03:03,142][361567] Worker 11 uses CPU cores [11]
[2026-01-20 16:03:03,295][361538] Using optimizer <class 'torch.optim.adam.Adam'>
[2026-01-20 16:03:03,929][361538] No checkpoints found
…
