…
[2026-01-21 10:58:38,083][79513] Initializing actor-critic model on device cpu
[2026-01-21 10:58:38,110][79534] Worker 3 uses CPU cores [3]
[2026-01-21 10:58:38,110][79539] Worker 9 uses CPU cores [9]
[2026-01-21 10:58:38,112][79540] Worker 8 uses CPU cores [8]
[2026-01-21 10:58:38,116][79535] Worker 4 uses CPU cores [4]
[2026-01-21 10:58:38,144][79513] Created Actor Critic model with architecture:
[2026-01-21 10:58:38,145][79513] ActorCriticSharedWeights(
  (obs_normalizer): ObservationNormalizer()
  (encoder): QuadMultiEncoder(
    (neighbor_encoder): QuadNeighborhoodEncoderMlp(
      (neighbor_mlp): Sequential(
        (0): Linear(in_features=6, out_features=256, bias=True)
        (1): Tanh()
        (2): Linear(in_features=256, out_features=256, bias=True)
        (3): Tanh()
        (4): Linear(in_features=256, out_features=256, bias=True)
        (5): Tanh()
      )
    )
    (self_encoder): Sequential(
      (0): Linear(in_features=18, out_features=256, bias=True)
      (1): Tanh()
      (2): Linear(in_features=256, out_features=256, bias=True)
      (3): Tanh()
    )
    (obstacle_encoder): Sequential(
      (0): Linear(in_features=9, out_features=256, bias=True)
      (1): Tanh()
      (2): Linear(in_features=256, out_features=256, bias=True)
      (3): Tanh()
    )
    (feed_forward): Sequential(
      (0): Linear(in_features=768, out_features=512, bias=True)
      (1): Tanh()
    )
  )
  (core): ModelCoreIdentity()
  (decoder): MlpDecoder(
    (mlp): Identity()
  )
  (critic_linear): Linear(in_features=512, out_features=1, bias=True)
  (action_parameterization): ActionParameterizationContinuousNonAdaptiveStddev(
    (distribution_linear): Linear(in_features=512, out_features=4, bias=True)
  )
)
[2026-01-21 10:58:38,176][79536] Worker 5 uses CPU cores [5]
[2026-01-21 10:58:38,184][79532] Worker 1 uses CPU cores [1]
[2026-01-21 10:58:38,425][79533] Worker 2 uses CPU cores [2]
[2026-01-21 10:58:38,448][79531] Worker 0 uses CPU cores [0]
[2026-01-21 10:58:38,452][79537] Worker 6 uses CPU cores [6]
[2026-01-21 10:58:38,476][79541] Worker 11 uses CPU cores [11]
…
