…
[2026-01-21 20:27:32,647][236712] Setting fixed seed 0
[2026-01-21 20:27:32,684][236712] Initializing actor-critic model on device cpu
[2026-01-21 20:27:32,754][236732] Worker 1 uses CPU cores [1]
[2026-01-21 20:27:32,759][236731] Worker 2 uses CPU cores [2]
[2026-01-21 20:27:32,822][236738] Worker 8 uses CPU cores [8]
[2026-01-21 20:27:32,818][236712] Created Actor Critic model with architecture:
[2026-01-21 20:27:32,826][236712] ActorCriticSharedWeights(
  (obs_normalizer): ObservationNormalizer()
  (encoder): QuadMultiEncoder(
    (neighbor_encoder): QuadNeighborhoodEncoderAttention(
      (embedding_mlp): Sequential(
        (0): Linear(in_features=24, out_features=256, bias=True)
        (1): Tanh()
        (2): Linear(in_features=256, out_features=256, bias=True)
        (3): Tanh()
      )
      (neighbor_value_mlp): Sequential(
        (0): Linear(in_features=256, out_features=256, bias=True)
        (1): Tanh()
        (2): Linear(in_features=256, out_features=256, bias=True)
        (3): Tanh()
      )
      (attention_mlp): Sequential(
        (0): Linear(in_features=512, out_features=256, bias=True)
        (1): Tanh()
        (2): Linear(in_features=256, out_features=256, bias=True)
        (3): Tanh()
        (4): Linear(in_features=256, out_features=1, bias=True)
      )
    )
    (self_encoder): Sequential(
      (0): Linear(in_features=18, out_features=256, bias=True)
      (1): Tanh()
      (2): Linear(in_features=256, out_features=256, bias=True)
      (3): Tanh()
    )
    (feed_forward): Sequential(
      (0): Linear(in_features=512, out_features=512, bias=True)
      (1): Tanh()
    )
  )
  (core): ModelCoreIdentity()
  (decoder): MlpDecoder(
    (mlp): Identity()
  )
  (critic_linear): Linear(in_features=512, out_features=1, bias=True)
  (action_parameterization): ActionParameterizationContinuousNonAdaptiveStddev(
    (distribution_linear): Linear(in_features=512, out_features=4, bias=True)
  )
)
[2026-01-21 20:27:32,915][236733] Worker 3 uses CPU cores [3]
[2026-01-21 20:27:32,936][236735] Worker 5 uses CPU cores [5]
[2026-01-21 20:27:33,030][236734] Worker 4 uses CPU cores [4]
[2026-01-21 20:27:33,030][236740] Worker 11 uses CPU cores [11]
[2026-01-21 20:27:33,238][236739] Worker 10 uses CPU cores [10]
[2026-01-21 20:27:33,286][236736] Worker 6 uses CPU cores [6]
…
