…
[2026-02-28 09:37:51,740][05300] WARNING! It is generally recommended to enable Fixed KL loss (https://arxiv.org/pdf/1707.06347.pdf) for continuous action tasks to avoid potential numerical issues. I.e. set --kl_loss_coeff=0.1
[2026-02-28 09:37:51,743][05300] Setting fixed seed 0
[2026-02-28 09:37:51,761][05300] Initializing actor-critic model on device cpu
[2026-02-28 09:37:51,795][05325] Worker 9 uses CPU cores [9]
[2026-02-28 09:37:51,795][05328] Worker 10 uses CPU cores [10]
[2026-02-28 09:37:51,806][05300] Created Actor Critic model with architecture:
[2026-02-28 09:37:51,807][05300] ActorCriticSeparateWeights(
  (obs_normalizer): ObservationNormalizer()
  (actor_encoder): QuadMultiHeadAttentionEncoder(
    (self_embed_layer): Sequential(
      (0): Linear(in_features=19, out_features=256, bias=True)
      (1): Tanh()
      (2): Linear(in_features=256, out_features=256, bias=True)
      (3): Tanh()
    )
    (neighbor_embed_layer): Sequential(
      (0): Linear(in_features=0, out_features=256, bias=True)
      (1): Tanh()
      (2): Linear(in_features=256, out_features=256, bias=True)
      (3): Tanh()
    )
    (obstacle_embed_layer): Sequential(
      (0): Linear(in_features=9, out_features=256, bias=True)
      (1): Tanh()
      (2): Linear(in_features=256, out_features=256, bias=True)
      (3): Tanh()
    )
    (attention_layer): MultiHeadAttention(
      (w_qs): Linear(in_features=256, out_features=1024, bias=False)
      (w_ks): Linear(in_features=256, out_features=1024, bias=False)
      (w_vs): Linear(in_features=256, out_features=1024, bias=False)
      (attention): ScaledDotProductAttention()
      (fc): Linear(in_features=1024, out_features=256, bias=False)
      (layer_norm): LayerNorm((256,), eps=1e-06, elementwise_affine=True)
    )
    (feed_forward): Sequential(
      (0): Linear(in_features=768, out_features=512, bias=True)
      (1): Tanh()
    )
  )
  (actor_core): ModelCoreIdentity()
  (critic_encoder): QuadMultiHeadAttentionEncoder(
    (self_embed_layer): Sequential(
      (0): Linear(in_features=19, out_features=256, bias=True)
      (1): Tanh()
      (2): Linear(in_features=256, out_features=256, bias=True)
      (3): Tanh()
    )
    (neighbor_embed_layer): Sequential(
      (0): Linear(in_features=0, out_features=256, bias=True)
      (1): Tanh()
      (2): Linear(in_features=256, out_features=256, bias=True)
      (3): Tanh()
    )
    (obstacle_embed_layer): Sequential(
      (0): Linear(in_features=9, out_features=256, bias=True)
      (1): Tanh()
      (2): Linear(in_features=256, out_features=256, bias=True)
      (3): Tanh()
    )
    (attention_layer): MultiHeadAttention(
      (w_qs): Linear(in_features=256, out_features=1024, bias=False)
      (w_ks): Linear(in_features=256, out_features=1024, bias=False)
      (w_vs): Linear(in_features=256, out_features=1024, bias=False)
      (attention): ScaledDotProductAttention()
      (fc): Linear(in_features=1024, out_features=256, bias=False)
      (layer_norm): LayerNorm((256,), eps=1e-06, elementwise_affine=True)
    )
    (feed_forward): Sequential(
      (0): Linear(in_features=768, out_features=512, bias=True)
      (1): Tanh()
    )
  )
  (critic_core): ModelCoreIdentity()
  (actor_decoder): MlpDecoder(
    (mlp): Identity()
  )
  (critic_decoder): MlpDecoder(
    (mlp): Identity()
  )
  (critic_linear): Linear(in_features=512, out_features=1, bias=True)
  (action_parameterization): ActionParameterizationContinuousNonAdaptiveStddev(
    (distribution_linear): Linear(in_features=512, out_features=4, bias=True)
  )
)
[2026-02-28 09:37:52,060][05321] Worker 3 uses CPU cores [3]
[2026-02-28 09:37:52,060][05324] Worker 7 uses CPU cores [7]
[2026-02-28 09:37:52,088][05329] Worker 11 uses CPU cores [11]
[2026-02-28 09:37:52,109][05318] Worker 0 uses CPU cores [0]
[2026-02-28 09:37:52,249][05300] Using optimizer <class 'torch.optim.adam.Adam'>
[2026-02-28 09:37:52,251][05323] Worker 5 uses CPU cores [5]
…
