…
[2026-01-20 17:01:48,898][416468] WARNING! It is generally recommended to enable Fixed KL loss (https://arxiv.org/pdf/1707.06347.pdf) for continuous action tasks to avoid potential numerical issues. I.e. set --kl_loss_coeff=0.1
[2026-01-20 17:01:48,899][416468] Setting fixed seed 0
[2026-01-20 17:01:48,903][416468] Initializing actor-critic model on device cpu
[2026-01-20 17:01:48,906][416489] Worker 3 uses CPU cores [3]
[2026-01-20 17:01:48,934][416468] Created Actor Critic model with architecture:
[2026-01-20 17:01:48,938][416468] ActorCriticSharedWeights(
  (obs_normalizer): ObservationNormalizer()
  (encoder): QuadMultiEncoder(
    (neighbor_encoder): QuadNeighborhoodEncoderAttention(
      (embedding_mlp): Sequential(
        (0): Linear(in_features=24, out_features=256, bias=True)
        (1): Tanh()
        (2): Linear(in_features=256, out_features=256, bias=True)
        (3): Tanh()
      )
      (neighbor_value_mlp): Sequential(
        (0): Linear(in_features=256, out_features=256, bias=True)
        (1): Tanh()
        (2): Linear(in_features=256, out_features=256, bias=True)
        (3): Tanh()
      )
      (attention_mlp): Sequential(
        (0): Linear(in_features=512, out_features=256, bias=True)
        (1): Tanh()
        (2): Linear(in_features=256, out_features=256, bias=True)
        (3): Tanh()
        (4): Linear(in_features=256, out_features=1, bias=True)
      )
    )
    (self_encoder): Sequential(
      (0): Linear(in_features=18, out_features=256, bias=True)
      (1): Tanh()
      (2): Linear(in_features=256, out_features=256, bias=True)
      (3): Tanh()
    )
    (obstacle_encoder): Sequential(
      (0): Linear(in_features=9, out_features=256, bias=True)
      (1): Tanh()
      (2): Linear(in_features=256, out_features=256, bias=True)
      (3): Tanh()
    )
    (feed_forward): Sequential(
      (0): Linear(in_features=768, out_features=512, bias=True)
      (1): Tanh()
    )
  )
  (core): ModelCoreIdentity()
  (decoder): MlpDecoder(
    (mlp): Identity()
  )
  (critic_linear): Linear(in_features=512, out_features=1, bias=True)
  (action_parameterization): ActionParameterizationContinuousNonAdaptiveStddev(
    (distribution_linear): Linear(in_features=512, out_features=4, bias=True)
  )
)
[2026-01-20 17:01:48,960][416496] Worker 5 uses CPU cores [5]
[2026-01-20 17:01:48,962][416487] Worker 1 uses CPU cores [1]
[2026-01-20 17:01:49,114][416503] Worker 9 uses CPU cores [9]
[2026-01-20 17:01:49,171][416501] Worker 8 uses CPU cores [8]
[2026-01-20 17:01:49,278][416504] Worker 11 uses CPU cores [11]
[2026-01-20 17:01:49,358][416468] Using optimizer <class 'torch.optim.adam.Adam'>
…
