…
[2026-01-21 14:56:45,414][05028] WARNING! It is generally recommended to enable Fixed KL loss (https://arxiv.org/pdf/1707.06347.pdf) for continuous action tasks to avoid potential numerical issues. I.e. set --kl_loss_coeff=0.1
[2026-01-21 14:56:45,415][05028] Setting fixed seed 0
[2026-01-21 14:56:45,435][05028] Initializing actor-critic model on device cpu
[2026-01-21 14:56:45,456][05028] Created Actor Critic model with architecture:
[2026-01-21 14:56:45,456][05028] ActorCriticSharedWeights(
  (obs_normalizer): ObservationNormalizer()
  (encoder): QuadMultiEncoder(
    (neighbor_encoder): QuadNeighborhoodEncoderAttention(
      (embedding_mlp): Sequential(
        (0): Linear(in_features=24, out_features=256, bias=True)
        (1): Tanh()
        (2): Linear(in_features=256, out_features=256, bias=True)
        (3): Tanh()
      )
      (neighbor_value_mlp): Sequential(
        (0): Linear(in_features=256, out_features=256, bias=True)
        (1): Tanh()
        (2): Linear(in_features=256, out_features=256, bias=True)
        (3): Tanh()
      )
      (attention_mlp): Sequential(
        (0): Linear(in_features=512, out_features=256, bias=True)
        (1): Tanh()
        (2): Linear(in_features=256, out_features=256, bias=True)
        (3): Tanh()
        (4): Linear(in_features=256, out_features=1, bias=True)
      )
    )
    (self_encoder): Sequential(
      (0): Linear(in_features=18, out_features=256, bias=True)
      (1): Tanh()
      (2): Linear(in_features=256, out_features=256, bias=True)
      (3): Tanh()
    )
    (feed_forward): Sequential(
      (0): Linear(in_features=512, out_features=512, bias=True)
      (1): Tanh()
    )
  )
  (core): ModelCoreIdentity()
  (decoder): MlpDecoder(
    (mlp): Identity()
  )
  (critic_linear): Linear(in_features=512, out_features=1, bias=True)
  (action_parameterization): ActionParameterizationContinuousNonAdaptiveStddev(
    (distribution_linear): Linear(in_features=512, out_features=4, bias=True)
  )
)
[2026-01-21 14:56:45,542][05050] Worker 4 uses CPU cores [4]
[2026-01-21 14:56:45,606][05049] Worker 3 uses CPU cores [3]
[2026-01-21 14:56:45,651][05053] Worker 8 uses CPU cores [8]
[2026-01-21 14:56:45,996][05051] Worker 6 uses CPU cores [6]
[2026-01-21 14:56:45,996][05067] Worker 9 uses CPU cores [9]
[2026-01-21 14:56:46,012][05068] Worker 11 uses CPU cores [11]
…
